MARL/DQN/models/policy_net.pt (torch, 72294 bytes, 6 tensors)

layer1.weight f4 [128, 4]
0	0xbee2e1e7	-0.44312975
1	0x3eba3eb9	0.3637598
2	0xbd87c5c9	-0.066295214
3	0xbe25ae64	-0.16179806
4	0x3e0fe432	0.14051893
5	0xbef9f828	-0.4882214
6	0xbea505a2	-0.3223086
7	0xbd1290f5	-0.035782773
8	0x3c979463	0.018503373
9	0x3e73f7cd	0.23824997
10	0x3cb46597	0.022021098
11	0x3ea51079	0.3223913
12	0x3e7c0275	0.24610312
13	0xbe7b8bf3	-0.24565105
14	0xbcb0716f	-0.021538464
15	0x3e54898c	0.20755595
16	0x3e8ef0f2	0.27918202
17	0xbeca4095	-0.39502397
18	0xbeb3974a	-0.35076362
19	0x3eb1e374	0.34743845
20	0xbec09acd	-0.37618104
21	0x3e81a536	0.25321358
22	0xbe559a5b	-0.20859663
23	0x3ef76223	0.4831706
24	0x3da7a105	0.08185009
25	0x3ed57a48	0.41694856
26	0x3e1d3e61	0.15355827
27	0xbe0a8a2e	-0.13529274
28	0xbee790c0	-0.45227623
29	0xbe9d3a08	-0.30708337
30	0x3e4e97a8	0.2017504
31	0xbdd23598	-0.102641284
32	0xbe70d5d9	-0.23519076
33	0xbdf87031	-0.12130774
34	0xbea3fef3	-0.32030448
35	0xbde2c13b	-0.11072012
36	0x3e71c93b	0.2361192
37	0x3e91d4d8	0.284827
38	0xbb6285ae	-0.0034564543
39	0x3e56e212	0.20984676
40	0x3ed581ea	0.4170068
41	0xbebe4de5	-0.37168804
42	0x3eac7c43	0.33688554
43	0xbd80f293	-0.06296267
44	0xbe43a9a9	-0.19107689
45	0xbed690d0	-0.41907358
46	0x3ed7eb19	0.42171553
47	0x3f09631b	0.5366685
48	0xbe81e2b5	-0.25368276
49	0x3ec76cd2	0.3895021
50	0x3e9d70c8	0.30750108
51	0xbd5c835a	-0.053836204
52	0xbcdb9621	-0.026804985
53	0x3dde4853	0.108536385
54	0xbdea4c1c	-0.11440298
55	0xbeede58f	-0.46464202
56	0x3ef59f30	0.47973013
57	0x3cfd319c	0.030907445
58	0xbe6cd608	-0.23128521
59	0x3d33abb0	0.043864906
60	0xbea53e01	-0.32273868
61	0x3e997d03	0.2997819
62	0x3ee3d39c	0.44497383
63	0xbef37cf4	-0.4755627
64	0xbcd17955	-0.025570551
65	0xbe9389f5	-0.2881619
66	0x3ea29746	0.31756037
67	0x3c099fb4	0.008399893
68	0x3d95e252	0.07318558
69	0x3d934f62	0.071928754
70	0xbdc44cd1	-0.09584964
71	0xbb54888e	-0.0032430026
72	0xbeb13f87	-0.3461878
73	0xbef26e27	-0.47349665
74	0xbef92c54	-0.48666632
75	0x3ee1aa3b	0.44075188
76	0xbee0916e	-0.43860954
77	0x3e93df8a	0.28881484
78	0x3e7e236c	0.248182
79	0x3e5ee130	0.2176559
80	0xbe91a179	-0.28443506
81	0xbebcb1af	-0.36854312
82	0xbe034852	-0.12820557
83	0xbe360f05	-0.17779167
84	0x3dcf35b2	0.101176634
85	0xbebad672	-0.36491734
86	0x3f0b8545	0.5450023
87	0x3e664ba5	0.22489794
88	0x3ebaf7c8	0.36517167
89	0x3e57112b	0.21002643
90	0x3c70db35	0.0147007005
91	0x3d2ade54	0.041715935
92	0xbc784d1f	-0.015155106
93	0x3edf8df3	0.43662986
94	0xbf05f49f	-0.5232639
95	0xbead210c	-0.33814275
96	0xbed64a9f	-0.41853806
97	0xbdd23e09	-0.102657385
98	0xbe5bdb20	-0.21470308
99	0xbee38418	-0.44436717
100	0xbe635cac	-0.2220332
101	0x3d970930	0.07374799
102	0x3e926ea1	0.28600028
103	0x3e59a727	0.2125517
104	0x3ab9124a	0.001411983
105	0x3e9a9a63	0.30195913
106	0x3edcbe79	0.4311407
107	0x3e7ff7b3	0.24996834
108	0x3e9a1d34	0.30100405
109	0x3e7b1f04	0.2452355
110	0xbef8b289	-0.48573712
111	0x3edba40a	0.4289859
112	0x3e724168	0.23657763
113	0x3eb09745	0.3449041
114	0xbe8e4269	-0.27785042
115	0x3e77a9fd	0.24185939
116	0xbed9494c	-0.42438734
117	0x3eafb169	0.3431504
118	0x3eacce77	0.3375127
119	0xbe76d230	-0.24103618
120	0x3df761d8	0.12079209
121	0x3e629d04	0.22130209
122	0x3bef6d40	0.007306725
123	0x3d35c1d0	0.044374287
124	0xbae945a6	-0.0017797246
125	0x3e1c2c33	0.15251236
126	0x3ea42ccf	0.32065436
127	0x3ec91e2f	0.3928084
128	0x3ec2628e	0.37965816
129	0x3dd84134	0.105593115
130	0xbd1a1504	-0.0376177
131	0x3ecba560	0.3977461
132	0xbdb5d0fc	-0.08877751
133	0xbed0554b	-0.40690073
134	0x3e2a7795	0.1664718
135	0xbefb5bb6	-0.49093407
136	0x3ec53e23	0.3852397
137	0x3ef70cf4	0.4825207
138	0x3bec371c	0.007208718
139	0xbeef0b67	-0.46688387
140	0x3ee9abad	0.4563879
141	0x3f0ca810	0.54943943
142	0xbcea16eb	-0.028575381
143	0x3eda39b9	0.42622164
144	0xbc886411	-0.016649278
145	0x3efcb63f	0.49357793
146	0xbeaede26	-0.3415386
147	0x3ea16487	0.3152201
148	0x3e37d718	0.17953146
149	0xbe1a068b	-0.15041558
150	0xbd2a46b5	-0.041571338
151	0x3ee19e7a	0.4406622
152	0xbe059d36	-0.13048252
153	0x3e270c1c	0.16313213
154	0xbe85054e	-0.2598061
155	0x3e43d3b8	0.19123733
156	0xbe56f36c	-0.20991296
157	0xbdce2c90	-0.10067093
158	0xbdca7e54	-0.098873764
159	0xbd57cd48	-0.052686006
160	0x3ea00217	0.31251594
161	0xbe3b7c0a	-0.18309036
162	0xbf00d628	-0.50326777
163	0xbeeb8e46	-0.46006984
164	0x3c9ebad2	0.019376192
165	0xbed19224	-0.4093181
166	0xbea78f50	-0.32726526
167	0x3e941754	0.28924048
168	0xbe50467c	-0.20339388
169	0x3e921cbd	0.2853755
170	0x3ea41aff	0.32051846
171	0x3da10fb8	0.07864326
172	0x3e5ea006	0.21740732
173	0xbf08a7ee	-0.5338124
174	0xbee4cb65	-0.44686428
175	0x3ea0793a	0.3134249
176	0x3e8f3727	0.27971765
177	0x3ecf41a2	0.4047976
178	0xbe8171a2	-0.25282007
179	0xba637cf0	-0.000867798
180	0x3d151cdf	0.036404487
181	0x3ecc262c	0.39872873
182	0xbedceeee	-0.4315104
183	0xbec48681	-0.38383868
184	0x3edd8b8d	0.4327053
185	0xbe1e3731	-0.15450741
186	0x3d06167b	0.032736283
187	0xbec0d881	-0.3766518
188	0x3ea71507	0.3263323
189	0xbeface41	-0.48985484
190	0xbed8ea41	-0.42366222
191	0xbe1d19dc	-0.15341896
192	0xbea315c0	-0.3185253
193	0xbe9873d4	-0.2977587
194	0x3e737f4b	0.23779027
195	0xbf0a7e6b	-0.5409915
196	0xbdc876ec	-0.097883075
197	0xbe029264	-0.12751156
198	0x3eb801e8	0.35938954
199	0xbdacae84	-0.08431724
200	0x3e08e6df	0.1336932
201	0xbea2a4bb	-0.31766304
202	0x3ded73bc	0.1159434
203	0x3ec03c76	0.37546128
204	0x3b36a8bf	0.0027871577
205	0xbe140496	-0.14454874
206	0x3ea47c24	0.32125962
207	0x3e0398d5	0.1285127
208	0xbdc380f7	-0.095460825
209	0x3efda592	0.49540383
210	0xbe79ece9	-0.2440678
211	0xbf035f16	-0.51316965
212	0x3d492144	0.04910399
213	0xbf0650a4	-0.524668
214	0x3e8a089b	0.2695969
215	0x3f066df3	0.5251152
216	0x3bfb2da7	0.0076653543
217	0x3e609256	0.21930823
218	0x3e8104e5	0.25199047
219	0x3e00009a	0.1250023
220	0xbe8d14ce	-0.27554935
221	0x3ef37d26	0.47556418
222	0x3e9752c3	0.2955533
223	0xbec064f2	-0.37577015
224	0xbd329720	-0.043601155
225	0x3dbbde63	0.09173276
226	0x3e818ebf	0.2530422
227	0xbeda1ca2	-0.4259997
228	0x3dbe4d4b	0.09292086
229	0x3de54947	0.11195617
230	0xbec91964	-0.39277184
231	0xbed4c420	-0.41555882
232	0x3ef2cbd5	0.47421136
233	0xbc90871c	-0.01764255
234	0x3e8a3894	0.2699629
235	0xbe05a29b	-0.1305031
236	0xbf008fc6	-0.5021938
237	0xbef17e38	-0.4716661
238	0x3ecdc7ce	0.401915
239	0x3f036223	0.5132162
240	0xbf029420	-0.5100727
241	0xbe84c36f	-0.25930354
242	0xbdf003be	-0.11719464
243	0x3db1d024	0.08682278
244	0xbddab9f8	-0.10680002
245	0x3efee655	0.49785104
246	0x3e3434ee	0.17598316
247	0xbe399bf0	-0.18125892
248	0xbe8326d6	-0.25615567
249	0x3e8cf732	0.27532345
250	0xbef6d2f0	-0.48207808
251	0xbe6f5b73	-0.23374729
252	0x3d9f3314	0.07773414
253	0xbdf75420	-0.120765924
254	0x3e861052	0.26184326
255	0xbe75daa0	-0.2400918

layer1.bias f4 [128]
0	0x3e2b4927	0.16727124
1	0x3dc8b6d8	0.098005
2	0xbeeff788	-0.4686854
3	0x3ecc5333	0.39907226
4	0xbe2cd8d4	-0.16879588
5	0xbe591645	-0.21199901
6	0x3edb0c80	0.42782974
7	0x3e9ce7bf	0.30645558
8	0x3eb4786b	0.35248122
9	0xbdd68a1c	-0.10475561
10	0xbda60f9a	-0.081084445
11	0x3ddfc2d7	0.109258346
12	0x3e770244	0.24121958
13	0x3cb12701	0.021625044
14	0xbea1815c	-0.31544006
15	0x3e39e988	0.18155491
16	0x3e703f61	0.23461677
17	0x3e560aae	0.20902511
18	0xbe86719a	-0.26258546
19	0xbeb782a8	-0.3584187
20	0x3e12c9b2	0.14334753
21	0xbec08d0d	-0.37607613
22	0xbd8b0425	-0.067879
23	0xbee28bb0	-0.44247198
24	0x3ecff7b0	0.40618658
25	0xbe3311db	-0.1748728
26	0x3e861f53	0.26195773
27	0x3eaad15b	0.3336285
28	0x3dc44198	0.095828235
29	0xbcf66b2f	-0.030080406
30	0xbec2b602	-0.38029486
31	0xbea734d3	-0.3265749
32	0xbef0e963	-0.4705306
33	0xbea4b980	-0.32172775
34	0x3ea8cf32	0.32970577
35	0x3e50a42d	0.20375128
36	0x3da43a82	0.08018972
37	0xbdd2cdd0	-0.10293162
38	0x3eb102ed	0.34572545
39	0xbea5219a	-0.32252198
40	0x3eac9cd4	0.337134
41	0xbece6789	-0.40313366
42	0x3e5cbaba	0.21555606
43	0xbe288087	-0.1645528
44	0xbe3ae6be	-0.18252084
45	0xbe29188b	-0.16513269
46	0x3ed345cd	0.4126419
47	0xbe1e031a	-0.1543087
48	0xbe83e399	-0.2575958
49	0xbec539f0	-0.38520765
50	0x3f04875a	0.5176903
51	0xbde1bb9f	-0.11022114
52	0x3e5afa4f	0.21384548
53	0x3e1f2123	0.15539984
54	0x3eb871aa	0.3602422
55	0x3ed404f3	0.41410026
56	0x3d82088b	0.06349286
57	0xbdbb3e33	-0.09142723
58	0x3e116bee	0.14201328
59	0xbea5bad6	-0.32369107
60	0xbdae138f	-0.08499824
61	0x3d711f81	0.058867935
62	0x3c101841	0.008794845
63	0xbed99674	-0.424976
64	0x3eadc158	0.33936572
65	0x3eea4608	0.45756555
66	0x3edaece8	0.4275887
67	0xbe7325c3	-0.23744874
68	0x3e9abd81	0.30222705
69	0x3f042d22	0.5163137
70	0xbeae77ec	-0.34075868
71	0xbe37714c	-0.17914313
72	0x3ea763f2	0.3269344
73	0xbe3fa8ad	-0.18716688
74	0xbe374531	-0.17897488
75	0xbdb751d8	-0.08951157
76	0x3d9507d3	0.07276883
77	0x3e3e6495	0.18593056
78	0xbea03173	-0.31287727
79	0xbd932251	-0.0718428
80	0x3de7d4da	0.11319895
81	0x3ee965c2	0.45585448
82	0x3eacb56b	0.3373216
83	0xbe69ea0d	-0.2284319
84	0xbeb01789	-0.34392956
85	0xbc833a92	-0.01601914
86	0x3e4239ca	0.18967357
87	0x3ebd5635	0.36979833
88	0xbec98b7a	-0.39364225
89	0xbbc80860	-0.006104514
90	0xbea15b43	-0.3151494
91	0x3eee1e1a	0.4650734
92	0x3e0889b2	0.13333777
93	0xbdc475bf	-0.09592771
94	0x3d77e906	0.060524963
95	0x3ec1680e	0.377747
96	0x3dfc7f3c	0.123289555
97	0xbecf418a	-0.4047969
98	0xbe7a657f	-0.2445278
99	0xbdd37272	-0.10324563
100	0xbdf02683	-0.117260955
101	0xbeba59b2	-0.36396557
102	0x3e5b3508	0.21406949
103	0x3e47c3d5	0.19508298
104	0x3e6c17f3	0.23056011
105	0xbee301b8	-0.4433725
106	0xbc54c4cb	-0.012986372
107	0xbed18949	-0.40925053
108	0x3e980bf9	0.29696634
109	0x3e123d03	0.14281087
110	0xbd113a53	-0.035456013
111	0xbee288bf	-0.44244954
112	0x3eaa3196	0.33240956
113	0xbda0db9b	-0.078543864
114	0x3f0ee70a	0.5582129
115	0xbe78da61	-0.24302055
116	0xbed5e0b3	-0.41772994
117	0xbedf4f7d	-0.43615332
118	0xbec885d3	-0.391646
119	0x3efc51bb	0.49281105
120	0x3ed5fb57	0.4179332
121	0x3eb1024b	0.34572062
122	0xbed9513f	-0.42444798
123	0x3d159d4c	0.036526963
124	0x3ed36b36	0.41292733
125	0xbe9300f9	-0.2871168
126	0xbe66ebff	-0.22550963
127	0x3efb94be	0.4913692

layer2.weight f4 [128, 128]
0	0x3c835e85	0.016036281
1	0x3d9cc0a1	0.076539285
2	0x3d2ce332	0.042208858
3	0xbca4611c	-0.020065837
4	0xbbf5ee40	-0.0075052083
5	0xbdb2132f	-0.08695065
6	0xbceb1f97	-0.028701587
7	0xbc87e94d	-0.016590739
8	0xbd60ec16	-0.05491265
9	0xbd2db52b	-0.042409103
10	0xbd80367d	-0.06260393
11	0xbd648c3d	-0.055797804
12	0x3d1cda6d	0.038294245
13	0x3d66b66b	0.05632631
14	0x3b5c5804	0.0033621797
15	0x3b88c499	0.004173827
16	0x3d964e5f	0.07339167
17	0x3c48b719	0.012250685
18	0x3d0d2a64	0.034464255
19	0xbd3aa76b	-0.04556982
20	0x3cfaf133	0.03063259
21	0x3d8a7cbb	0.06762072
22	0xbb5d2ede	-0.003374986
23	0xbd2d5183	-0.042314064
24	0xbdae5302	-0.08511926
25	0xbcdbe7d8	-0.02684395
26	0x3cb35004	0.02188874
27	0x3d168404	0.036746994
28	0xbbf5bf8a	-0.00749964
29	0xbd897d74	-0.067133814
30	0x3daf401f	0.08557152
31	0xbb31e990	-0.002714727
32	0xbd282de0	-0.041059375
33	0x3c2b4720	0.010453969
34	0x3d13d071	0.036087457
35	0xbce4e6fe	-0.027942177
36	0xbcb73561	-0.02236432
37	0x3d61f742	0.055167444
38	0xbd166d75	-0.03672548
39	0x3da60293	0.0810596
40	0xbd9c9c64	-0.07647017
41	0xbd7cc50a	-0.06171135
42	0xbb43643f	-0.002981439
43	0xbda29c56	-0.07939975
44	0xbaae6b8c	-0.0013307198
45	0xbce582c4	-0.028016455
46	0xbd8b01d0	-0.06787455
47	0x3d371c16	0.04470452
48	0xbd8f5300	-0.06998253
49	0xb9c706ec	-0.00037961395
50	0x3caeb6bc	0.021327369
51	0x3d2728c2	0.040810354
52	0xbdbbad68	-0.09163934
53	0xbd2475ca	-0.040151395
54	0x3c0d6e42	0.008632245
55	0xbd81cc63	-0.06337812
56	0x3da91268	0.08255464
57	0x3d526b26	0.051371716
58	0xbd857569	-0.06516535
59	0x3cae5bbc	0.021283977
60	0x3d859347	0.065222315
61	0x3da97166	0.08273582
62	0xbd3fee82	-0.04685832
63	0x3db00d6d	0.08596311
64	0xbd8a43ce	-0.06751214
65	0x3d7c766a	0.061636366
66	0x3d9f132c	0.077673286
67	0x3d71ee1e	0.059064977
68	0xbab9fac7	-0.0014189117
69	0x3da0303b	0.07821699
70	0xbda1c008	-0.07897955
71	0x3d7a580e	0.06111913
72	0x3d9589f3	0.07301702
73	0x3cfd248c	0.030901216
74	0x3d2f911f	0.042863008
75	0xbda5b140	-0.080904484
76	0xbd365b8b	-0.044520896
77	0x3d285bf1	0.041103307
78	0x3bf41c6c	0.007449677
79	0xbd5f724c	-0.05455236
80	0x3d91d857	0.07121342
81	0xbd86792e	-0.06566082
82	0x3ba0ffc5	0.0049133026
83	0x3db07e75	0.0861787
84	0xbd8ebf08	-0.0697003
85	0x3cc7df50	0.024398476
86	0x3c0d7e03	0.008636001
87	0xbd20add9	-0.039228294
88	0xbcbae650	-0.0228149
89	0xbd9d8719	-0.076917835
90	0x3d8d199f	0.068896525
91	0x3d2c0bfc	0.042003617
92	0x3d84bef3	0.06481733
93	0xba737040	-0.0009286441
94	0x3d34d55a	0.04414878
95	0xbd622d4a	-0.055218972
96	0x3d4c62f9	0.049899075
97	0xbb40c471	-0.0029413963
98	0x3d33af06	0.043868087
99	0xbc547e2e	-0.012969537
100	0xbd2772d0	-0.040880978
101	0xbda77234	-0.081760794
102	0x3cf468b9	0.029835092
103	0xbd535dd1	-0.051603142
104	0xbd700542	-0.058598764
105	0x3d57d616	0.052694403
106	0xbcc91cf8	-0.024549946
107	0xbd3725ed	-0.044713903
108	0xbd2094de	-0.03920447
109	0xbb92bf9a	-0.004478407
110	0x3cbcfb7d	0.023069138
111	0x3d8d3101	0.068941124
112	0xbcdd8c45	-0.027044425
113	0x3d94f375	0.07272998
114	0x3d1a94f3	0.037739705
115	0xbd6d56e9	-0.057944212
116	0xbc727bf8	-0.014800064
117	0x3d4ce309	0.050021205
118	0xbc8cc4d0	-0.017183691
119	0x3c9037c3	0.017604714
120	0xbdb4c36d	-0.08826337
121	0xbd4bba75	-0.049738366
122	0x3d91a1d7	0.071109466
123	0xbdb24657	-0.087048225
124	0x3d4ffccd	0.0507782
125	0xbcc13557	-0.023585005
126	0x3d1e984e	0.038719468
127	0xbd1c82fd	-0.038210858
128	0x3cde20e4	0.027115293
129	0x3d802f63	0.06259038
130	0xbd950968	-0.07277185
131	0x3d44f92e	0.0480892
132	0xbd111d2c	-0.03542821
133	0xbd36bc42	-0.04461313
134	0xbca7e1ec	-0.02049347
135	0x3a43506c	0.00074506435
136	0xbd943aca	-0.072377756
137	0xbd6cef93	-0.057845663
138	0xbd40c1a3	-0.047059666
139	0xbcd5d962	-0.026104633
140	0x3d3fc94e	0.04682284
141	0xbd1585ab	-0.03650443
142	0x3d7a3512	0.061085768
143	0x3d9baec7	0.076016955
144	0xbca751dc	-0.020424776
145	0x3d908201	0.07056046
146	0x3daddc1d	0.08489249
147	0xbda85c43	-0.082207225
148	0x3dad0c51	0.08449615
149	0xbcfecd66	-0.031103801
150	0x3d42fc8a	0.04760412
151	0x3d9aac91	0.07552446
152	0xbd1d6054	-0.038421944
153	0x3d3d7846	0.04625728
154	0x3bc43f1c	0.0059889685
155	0xbd721c92	-0.059109278
156	0xbd300356	-0.04297193
157	0x3db24cb5	0.08706037
158	0xbd982855	-0.07429568
159	0xbd92e414	-0.07172409
160	0xbc844f74	-0.016151167
161	0xbd35e1af	-0.04440468
162	0x3cdebe7c	0.02719044
163	0x3c9e53b0	0.019327015
164	0x3d13275a	0.0359262
165	0x3c10d4e0	0.008839816
166	0x3d50133a	0.050799586
167	0xbc0393b4	-0.008030821
168	0xbd985a72	-0.07439126
169	0x3d02e9da	0.0319613
170	0xbcfafd70	-0.030638427
171	0x3cfb6320	0.030686915
172	0xbdac35e8	-0.08408719
173	0xbc90b204	-0.01766301
174	0xbd94c06c	-0.07263264
175	0x3d471ac6	0.048609518
176	0xbda4a016	-0.080383465
177	0xbd173dd0	-0.036924183
178	0xbd20730c	-0.039172217
179	0xbda1b2ba	-0.078954175
180	0xbceebacc	-0.029141806
181	0xbc617484	-0.01376069
182	0xbd4c64ac	-0.049900696
183	0xbcccf92c	-0.025021158
184	0x3d1ad6fa	0.037802674
185	0x3da46c21	0.080284365
186	0xbda78665	-0.081799306
187	0xbd892c16	-0.06697862
188	0x3dab06c7	0.08350902
189	0xbca88e38	-0.020575628
190	0xbc23a284	-0.009987477
191	0xbda3937f	-0.07987117
192	0x3d4111d2	0.047136135
193	0x3cd069a0	0.02544099
194	0x3d41801a	0.047241308
195	0xbcb64fd4	-0.022254862
196	0x3d43af92	0.04777486
197	0xbdb2a77f	-0.087233536
198	0x3d76a316	0.060214125
199	0x3b8ddd2c	0.0043293443
200	0xbd4e3e64	-0.05035247
201	0x3d37f89a	0.04491482
202	0x3d39215a	0.045197822
203	0x3cb19268	0.021676257
204	0x3be9aeb0	0.00713142
205	0x3d569cc2	0.05239559
206	0xbd999873	-0.074997805
207	0x3cbe4fe0	0.023231447
208	0x3d02ec76	0.031963788
209	0xbc2efff8	-0.010681145
210	0x3c4ec480	0.012620091
211	0xbda9f187	-0.08298021
212	0x3d821b05	0.0635281
213	0xbc781de0	-0.0151438415
214	0x3d01d274	0.031694844
215	0xbb92ada8	-0.004476268
216	0xbc8f058a	-0.017458696
217	0xbd6bfe08	-0.05761531
218	0xbdade33c	-0.08490607
219	0xbad3be88	-0.0016154805
220	0x3ca177c4	0.019710429
221	0x3d9c22e9	0.07623846
222	0x3d1e8bb6	0.038707457
223	0xbcd9cce2	-0.026586954
224	0xbd4b2160	-0.049592376
225	0xbd21db13	-0.039515566
226	0x3c6e62a8	0.014549889
227	0xbd059c79	-0.032619927
228	0xbda9e286	-0.08295159
229	0x3d1e5d36	0.03866311
230	0xbd89b995	-0.0672485
231	0x3d2f1966	0.04274883
232	0xbd43c059	-0.04779086
233	0xbc99071c	-0.018680148
234	0x3d7022ea	0.058627047
235	0xba6d7440	-0.0009058155
236	0xbd03af31	-0.032149497
237	0xbd9225ce	-0.07136117
238	0xbd4bd43f	-0.04976296
239	0x3cfc08e8	0.030765966
240	0x3d566022	0.052337773
241	0xbd2f1bb9	-0.042751048
242	0xbd8afc8c	-0.06786451
243	0xbd03e85b	-0.032204013
244	0xbd70498c	-0.05866389
245	0xbd44cb3d	-0.048045386
246	0xbc06a07c	-0.008216973
247	0xbda3211e	-0.07965301
248	0xbd4d7d65	-0.050168414
249	0xbc8b24f4	-0.016985394
250	0x3d5c7b0a	0.053828277
251	0x3d9ef87b	0.07762238
252	0xbcd0e184	-0.02549816
253	0xbcf3e434	-0.029771902
254	0xbd2c7337	-0.042102065
255	0xbd538bb4	-0.051646903

layer2.bias f4 [128]
0	0xbcbb7b9b	-0.022886088
1	0x3d44327a	0.0478997
2	0xbd28a2f8	-0.041171044
3	0x3d912649	0.070873804
4	0x3d821d27	0.063532166
5	0x3cec75f4	0.028864838
6	0x3d01c4b0	0.031681716
7	0xbd3e3c2a	-0.046444096
8	0x3d415d15	0.04720791
9	0xbb57a333	-0.003290367
10	0x3c9cbe12	0.019133601
11	0x3dcad659	0.09904165
12	0x3bbe4e73	0.0058076917
13	0xbc913abf	-0.017728208
14	0x3c47d980	0.012197852
15	0xbb9d0c3e	-0.004792719
16	0x3c000734	0.007814217
17	0x3de86316	0.11347024
18	0x3d075136	0.033036433
19	0x3d1908ba	0.037361838
20	0x3dea494f	0.11439764
21	0xbc177c41	-0.009245933
22	0x3de79f4d	0.11309681
23	0x3d89d47f	0.067299835
24	0xbd11b2ab	-0.03557078
25	0x3d9ba198	0.07599181
26	0xbd4fc9b2	-0.05072946
27	0xbd287e13	-0.04113586
28	0x3dbf8be3	0.09352853
29	0x3e0b152c	0.13582295
30	0x3dd3998f	0.10332023
31	0x3d8bd5c8	0.06827885
32	0x3e057d4c	0.13036078
33	0x3da11767	0.07865792
34	0xbd14546b	-0.03621332
35	0x3d9b1678	0.07572645
36	0x3ce3bd78	0.027800307
37	0x3d00efee	0.031478815
38	0x3b853493	0.004065105
39	0x3ded81d9	0.11597032
40	0xbbaa762a	-0.0052020745
41	0x3da7fd23	0.08202579
42	0x3ce7c1d1	0.028290661
43	0xbd2965d3	-0.041356873
44	0x3ab636f4	0.0013901875
45	0x3d15f466	0.03661003
46	0x3c85fc19	0.016355561
47	0x3e089950	0.13339734
48	0xbd16a907	-0.03678229
49	0x3db245cd	0.0870472
50	0xbd3d800d	-0.046264697
51	0xbdb2ddea	-0.08733733
52	0x3d5b45b9	0.05353329
53	0x3d8e01c4	0.069339305
54	0x3ddafdae	0.10692917
55	0xbbb06e28	-0.0053842254
56	0x3d874062	0.06604077
57	0x3dbde057	0.09271305
58	0xbda6bf9d	-0.08142016
59	0x3dd788f2	0.10524167
60	0x3da0f769	0.0785969
61	0xbd9a1f1e	-0.075254664
62	0xbc86827e	-0.016419645
63	0x3d472d58	0.048627228
64	0x3d85bcab	0.06530126
65	0xbb34552d	-0.002751659
66	0xbd23dc23	-0.04000486
67	0x3d375b18	0.04476461
68	0x3dc90016	0.098144695
69	0x3d966b0f	0.073446386
70	0x3c55f220	0.013058215
71	0x3c12e4d9	0.008965694
72	0xbc64daa2	-0.013968142
73	0x3d71d0c7	0.059036996
74	0xb9c11fbf	-0.0003683548
75	0x3dbb8852	0.091568604
76	0x3d713a7d	0.05889367
77	0x3da3407a	0.07971282
78	0x3dbfa4c9	0.09357602
79	0xbc076fda	-0.008266414
80	0xbd17f47d	-0.037098397
81	0x3d5f4498	0.054508775
82	0x3b113586	0.0022157147
83	0x3dd01d2c	0.10161814
84	0xbb8ee97c	-0.0043613296
85	0xbd541cf4	-0.051785424
86	0x3d95cfab	0.07315
87	0xbd526f23	-0.05137552
88	0x3dbf1724	0.093305856
89	0xbbc34a3c	-0.005959777
90	0x3dc4ff42	0.09618999
91	0x3d98feeb	0.07470497
92	0x3cb4a345	0.02205051
93	0x3de2992c	0.110643715
94	0x3d90d6b9	0.07072205
95	0xbdc5ff75	-0.09667865
96	0x3da6b87a	0.08140655
97	0x3ce396c3	0.02778185
98	0x3d45b1ad	0.048265148
99	0xbc8dc8a3	-0.017307585
100	0xbce8d2d0	-0.028420836
101	0x3d167fc5	0.036742944
102	0x3d8335e6	0.06406765
103	0x3d139b7b	0.03603695
104	0x3db8586b	0.090012394
105	0x3ca8ced4	0.020606436
106	0x3b0fba29	0.0021931028
107	0x3cfb2f64	0.030662246
108	0x3d79093e	0.06079983
109	0x3df00419	0.117195316
110	0x3d9cf8b7	0.07664626
111	0x3ddd0996	0.10792844
112	0x3d134b9f	0.03596079
113	0xbca6ba10	-0.020352393
114	0x3deae0f6	0.11468689
115	0xbd63947b	-0.055561524
116	0xbc124682	-0.008927943
117	0x3e131eb4	0.14367181
118	0xbc9fcbc1	-0.019506337
119	0x3d813a83	0.06309988
120	0x3c49f686	0.012326842
121	0xbc2c62d9	-0.010521614
122	0xbcda0934	-0.026615717
123	0x3d69a893	0.05704553
124	0xbd0ad65d	-0.03389584
125	0xbc48c306	-0.012253528
126	0xbd60cdfd	-0.054883946
127	0xbc1aedba	-0.0094560925

layer3.weight f4 [2, 128]
0	0xbd89a157	-0.06720226
1	0xbd13c7ed	-0.036079336
2	0x3e0a3d5d	0.1349997
3	0xbca51637	-0.020152194
4	0x3e0c9f29	0.1373259
5	0x3db5b3d9	0.08872194
6	0xbd2b3c05	-0.041805286
7	0xbd50e676	-0.051001035
8	0xbbcdd3fc	-0.006281374
9	0x3d3da24c	0.046297356
10	0x3e075b9d	0.13218541
11	0x3d874502	0.06604959
12	0xbc1b1836	-0.009466222
13	0xbcc9626b	-0.024583062
14	0xbd634742	-0.05548788
15	0x3ddf5871	0.10905541
16	0x3da6998b	0.08134755
17	0x3e119f58	0.14220941
18	0xbd057dd2	-0.032590695
19	0xbca0409e	-0.019562062
20	0xbbd0c614	-0.006371269
21	0x3d7d1be4	0.061794177
22	0x3d695996	0.0569702
23	0x3d2ca740	0.04215169
24	0x3da68f60	0.08132815
25	0x3ce1e9b9	0.027577268
26	0xbc53b508	-0.012921579
27	0xbd2d03a4	-0.0422398
28	0x3d59ff88	0.05322221
29	0x3d398616	0.04529389
30	0x3d7b6f8c	0.061385676
31	0x3cf0e765	0.029407213
32	0x3d618e74	0.055067495
33	0x3e061ecc	0.13097686
34	0xbd168d96	-0.03675612
35	0x3cb9626c	0.022629939
36	0x3a074ddf	0.0005161445
37	0xbd6bbf9c	-0.05755578
38	0xbd88b0a2	-0.06674315
39	0x3e0396ad	0.12850447
40	0xbd8ebb5a	-0.06969328
41	0x3db6f529	0.08933479
42	0x3de6f443	0.11277058
43	0xbc48743c	-0.012234744
44	0xbdc7faa3	-0.09764602
45	0xbd4fcec8	-0.05073431
46	0xbd7446dc	-0.05963789
47	0x3de96465	0.11396102
48	0xbdd3ec57	-0.103478126
49	0x3da2a401	0.079414375
50	0xbda473d0	-0.08029902
51	0xbd8ef94f	-0.069811456
52	0xbdaceb8b	-0.08443364
53	0xbb87dce5	-0.0041462057
54	0x3e1ac556	0.1511434
55	0x3d3141ab	0.043275516
56	0xbd3251c7	-0.04353502
57	0x3e045a1c	0.12924999
58	0xbc63a9f2	-0.013895499
59	0x3d7385e0	0.059453845
60	0x3d1ccc0f	0.038280543
61	0xbdc5442c	-0.096321434
62	0x3dfa2d35	0.12215654
63	0xbd2d89f9	-0.04236791
64	0xbd6bf30f	-0.057604846
65	0x3ca8ef34	0.020621873
66	0x3d43ad2e	0.04777258
67	0xbc955f78	-0.018234
68	0x3db3da59	0.08781881
69	0xbd0b3a69	-0.03399125
70	0xbdb2f111	-0.08737386
71	0x3d8d59e3	0.0690191
72	0x3ce70ee9	0.028205352
73	0x3c8ce5e6	0.017199468
74	0x3dc84157	0.097780876
75	0x3c9c487f	0.019077538
76	0xbd23cd3b	-0.039990645
77	0x3e18b2c5	0.14911945
78	0x3d1354e0	0.035969615
79	0x3e0a5aa7	0.13511144
80	0x3db78d09	0.08962447
81	0xbd5cc7f0	-0.053901613
82	0x3e05010c	0.1298868
83	0x3c373034	0.011180926
84	0x3d1d21de	0.038362376
85	0x3c40ded8	0.01177188
86	0x3d18f68f	0.03734451
87	0x3da56301	0.08075524
88	0x3e0ebee5	0.13940008
89	0x3d92c60d	0.071666814
90	0xbd30b99e	-0.04314577
91	0x3df15942	0.11784603
92	0x3cda4fea	0.026649434
93	0x3de99a28	0.11406356
94	0xbd835110	-0.06411946
95	0xbd69f951	-0.057122532
96	0x3d9e2346	0.077215716
97	0xbd1a6fd2	-0.037704296
98	0x3d1c45d8	0.038152546
99	0x3d10e991	0.035378996
100	0x3e053a02	0.1301041
101	0x3cd6fdc3	0.02624405
102	0x3d8f9c7e	0.070122704
103	0x3dbe9c07	0.093071036
104	0xbb947659	-0.0045307097
105	0xbd8fff0d	-0.07031069
106	0x3ded5a87	0.11589532
107	0xbd4b71b4	-0.049668983
108	0xbce4e61c	-0.027941756
109	0x3d8667b9	0.06562752
110	0x3dfa156a	0.12211116
111	0x3d0f475a	0.034980156
112	0x3da94669	0.08265383
113	0x3d276f16	0.040877424
114	0x3d928974	0.07155123
115	0x3d97cea5	0.07412461
116	0x3d7cd3f3	0.061725568
117	0x3dcdfa78	0.10057539
118	0x3d2c7edf	0.04211318
119	0x3d739be2	0.059474833
120	0x3d903c46	0.07042746
121	0xbd19db2e	-0.03756254
122	0x3d818f61	0.063261755
123	0x3cc85a44	0.024457105
124	0xbbc6ae6a	-0.0060632722
125	0x3d9ce8e4	0.07661608
126	0xbd6bf622	-0.057607777
127	0x3dc7a8b2	0.09748973
128	0x3c81a655	0.015826384
129	0xbdac32c5	-0.08408121
130	0x3d7738d2	0.060356922
131	0x3d973398	0.073828876
132	0x3d08e173	0.03341813
133	0x3cba0ffe	0.022712704
134	0xbcfa502a	-0.030555803
135	0xbd9b6ab5	-0.07588712
136	0x3e0ffd6c	0.14061517
137	0x3dd1cc89	0.1024409
138	0x3ddf3fa6	0.10900812
139	0x3de9fc1e	0.11425041
140	0xbbfba957	-0.007680099
141	0xbd0d95b0	-0.03456658
142	0xbd2fa0df	-0.042878028
143	0x3d687810	0.056755126
144	0x3c304980	0.010759711
145	0x3d05a328	0.0326263
146	0xbd3f3359	-0.04667983
147	0xbd199a96	-0.03750094
148	0x3daa2e93	0.083096646
149	0xbd010a46	-0.03150394
150	0x3d8a5506	0.06754498
151	0x3d7eb8f1	0.062188093
152	0x3dacc7b0	0.08436525
153	0xbd84d0b7	-0.06485122
154	0xbcda7942	-0.026669148
155	0xbd3a61f2	-0.045503564
156	0x3d8b9534	0.068155676
157	0x3db6f048	0.08932549
158	0x3e0179f6	0.1264418
159	0xbcfd3e40	-0.030913472
160	0x3deaa307	0.11456876
161	0x3ca3d862	0.02000064
162	0xbd51fb08	-0.051264793
163	0x3df644a5	0.12024812
164	0x3945fea4	0.00018882245
165	0xbcb6543e	-0.022256967
166	0xbda2edce	-0.07955514
167	0x3d43a468	0.047764212
168	0xbd9df6b0	-0.077130675
169	0x3dc8b425	0.09799985
170	0x3dab7359	0.0837161
171	0xbc7a3062	-0.015270324
172	0xbd554358	-0.052066177
173	0xbcfec10e	-0.031097915
174	0x3d709432	0.05873508
175	0x3c8190ab	0.015816053
176	0xbd2b6180	-0.04184103
177	0x3df796bd	0.12089298
178	0x3cd56b03	0.026052004
179	0x3cadd00e	0.021217372
180	0xbdf2f12c	-0.11862406
181	0x3d9f0712	0.077650204
182	0x3d633efa	0.05547998
183	0x3dadd48b	0.08487805
184	0x3d0cbc58	0.034359306
185	0x3dec9171	0.11551178
186	0x3db60a72	0.08888711
187	0x3d9f114f	0.07766973
188	0x3d9fcaa6	0.07802324
189	0xbb48f9ed	-0.0030666545
190	0x3db16c8d	0.086632825
191	0xbc2e7c1a	-0.010649705
192	0xbc8c2e3f	-0.017111896
193	0x3bcd9ecc	0.0062750336
194	0x3d3972ba	0.045275427
195	0x3c37bd17	0.011214516
196	0x3e0bfc88	0.13670552
197	0xbd025591	-0.031819884
198	0xbd341e65	-0.0439743
199	0xbd283519	-0.041066263
200	0x3df73cd9	0.12072153
201	0x3db04080	0.086060524
202	0x3d9b93aa	0.07596524
203	0x3e092304	0.13392264
204	0x3cb96e9e	0.022635754
205	0xbc61ec82	-0.013789298
206	0x3dcd3b13	0.10021033
207	0x3dca35a3	0.09873512
208	0x3dc33879	0.09532256
209	0xbd99c72c	-0.07508692
210	0x3cddc8b1	0.027073236
211	0x3e0ca438	0.1373452
212	0x3d542f62	0.051803
213	0xbdbc4632	-0.09193076
214	0xbd8faf1b	-0.070158206
215	0xbc67ef7c	-0.014156219
216	0x3c949312	0.018136535
217	0xbbb0a850	-0.005391158
218	0x3d8f0c7d	0.06984804
219	0x3db693df	0.08914923
220	0x3e237924	0.1596418
221	0x3cb283e4	0.021791406
222	0xbc669032	-0.014072465
223	0x3d14d401	0.036334995
224	0x3dbfb3ba	0.09360452
225	0x3ba0fb85	0.004912796
226	0xbd9cc824	-0.07655361
227	0x3e05e569	0.13075794
228	0x3e169681	0.1470585
229	0x3dcc21d9	0.099673934
230	0x3d3ebee7	0.046568777
231	0x3dcccf89	0.10000522
232	0x3e00d494	0.12581092
233	0x3cc0b441	0.023523452
234	0xbd323fe8	-0.043517977
235	0xbcef25b7	-0.029192789
236	0xbc50f6c2	-0.012754144
237	0x3de484bc	0.111581296
238	0x3dfca261	0.12335659
239	0x3deaaf95	0.11459271
240	0x3d693752	0.056937523
241	0xbdb0a675	-0.08625499
242	0x3d431e73	0.04763646
243	0xbd9bac7a	-0.07601257
244	0x3d954503	0.072885536
245	0xbc812eb4	-0.01576934
246	0x3df2c47a	0.11853881
247	0x3dfb1199	0.12259216
248	0x3de6d0ff	0.112703316
249	0xbd8416f4	-0.064496905
250	0x3d324dda	0.043531276
251	0x3e0b5908	0.13608181
252	0x3e0ab80e	0.13546774
253	0x3db49d0c	0.08819017
254	0xbd1ed914	-0.03878124
255	0x3cbf2da0	0.023337185

layer3.bias f4 [2]
0	0xbd1611c7	-0.036638048
1	0x3c9bb29a	0.019006062
